DQN/Cartpole/frozen_lake_dql.pt (torch, 3472 bytes, 4 tensors)

fc1.weight f4 [16, 16]
000000 e4 d0 bd 3d d8 c5 76 bd 1c 48 94 3d c0 dc 01 3d
       0.09268358 -0.060247272 0.07240316 0.031704664
000010 00 03 f8 bd 40 8a bd 3d 98 77 e4 bd 50 f4 b0 3d
       -0.12109947 0.09254885 -0.11155623 0.08640349
000020 f8 e4 b0 bd b8 db 68 3e a0 36 34 3c 1a 60 63 3e
       -0.08637422 0.22740066 0.010999352 0.22204629
000030 10 fa 51 be ec ba 5f 3e e4 77 52 be f0 31 7a bd
       -0.20505548 0.21848649 -0.20553547 -0.06108278
000040 9f be 46 3e 16 68 31 3e 9a d3 37 3e fa 10 8b 3d
       0.19408654 0.17324862 0.17951813 0.067903474
000050 ef fb cb 3d 70 b7 c8 bc ac b5 4a be 88 c2 0f 3d
       0.09960162 -0.024501532 -0.19795865 0.03509763
000060 e5 4d c1 3e 8d b8 dd bd 57 0d 76 3d a0 a0 18 bc
       0.3775474 -0.10826216 0.060071316 -0.00931564
000070 88 55 63 3d 14 e2 16 be fb e7 dd 3d 64 e2 4c be
       0.05550149 -0.1473468 0.108352624 -0.20008236
000080 13 fb 2f 3d 81 24 1e 3e fc e7 54 be c9 d9 f1 bd
       0.042964052 0.15443613 -0.2079162 -0.11809117
000090 0e 4c 8b 3e fc f1 5b 3e 0c ad 5b be d0 17 21 bd
       0.27206463 0.21479028 -0.21452731 -0.03932935
0000a0 2a 1b 0f be 98 d6 c4 3e 2d 1b d6 3e ec 1b 69 3e
       -0.13975206 0.38444972 0.41817608 0.22764558
0000b0 88 c7 ea 3d 7e a1 36 be 22 b1 79 be e0 55 ad bc
       0.11463839 -0.17835042 -0.24383977 -0.021159112
0000c0 d0 a5 bb bd 12 08 6c be 39 5a 40 3e 54 5e a9 3e
       -0.091624856 -0.23049954 0.18784417 0.3307978
0000d0 50 44 90 3e b0 c4 2a 3d f4 e8 d4 3e b8 99 e7 bd
       0.28177118 0.041691482 0.4158398 -0.113086164
0000e0 c8 fd 95 bd c7 30 7c be 44 de 0c 3f 90 3f 06 be
       -0.073237956 -0.24627982 0.5502665 -0.13110185
0000f0 58 3f 43 3e 1a 0a 7f be 79 9e 98 3d ea 15 44 be
       0.19067132 -0.24906197 0.07452101 -0.19148985
000100 6e 13 75 3e 55 58 99 bd 57 59 fc 3a b4 8d 99 be
       0.23933193 -0.07487551 0.00192527 -0.29990923
000110 e6 67 21 3e bc 8e 28 be ba bc a6 3d c2 f4 5e 3e
       0.1576229 -0.16460699 0.081414655 0.21773055
000120 57 3b 9c be 45 22 95 3d b0 9f a6 3e 00 96 d9 3d
       -0.30514023 0.07281927 0.32543707 0.10624313
000130 d8 b7 4c 3e 9a 28 e2 bd d5 bd 3f 3d c4 46 42 3e
       0.19992006 -0.110429004 0.046811897 0.18972307
000140 b7 a4 fd 3d 48 14 e5 bd 10 7b 1a be 02 2b 50 be
       0.123849325 -0.11185509 -0.15086007 -0.20328906
000150 98 01 25 bd e6 73 43 3e 78 20 e2 3d 20 4c bb 3d
       -0.040284723 0.1908718 0.11041349 0.09145379
000160 08 22 4c bd c0 08 57 bc 80 95 0b 3c 10 c9 5e 3d
       -0.049837142 -0.013124645 0.00851953 0.054390967
000170 ea 8f 71 3e 20 57 df bc 9a e6 19 be a0 7b 3c bd
       0.23590055 -0.027263224 -0.15029374 -0.046016335
000180 4b 81 58 3e a9 07 24 3e 98 8f 19 bd 72 d4 0a be
       0.21143071 0.16018547 -0.037490457 -0.13557604
000190 55 b6 ab 3e e0 00 ce bc b0 6b 0c bd 02 7e 71 be
       0.33537546 -0.025146902 -0.034282386 -0.23583224
0001a0 39 b2 b3 3c 30 54 fc bc ea ab 39 be 60 25 93 bc
       0.02193557 -0.030801862 -0.18131986 -0.017962158
0001b0 12 4b 6f 3e b3 c3 43 3e d8 e1 59 bd 20 b6 99 3d
       0.23368481 0.19117622 -0.053193897 0.07505441
0001c0 3f 82 9e 3d c1 8b 90 be 03 12 8a 3b 75 7e 69 be
       0.07739686 -0.28231624 0.004213573 -0.22802146
0001d0 35 23 5c bc 24 ba 34 be 98 46 2e 3e e8 09 1a 3e
       -0.013436128 -0.17649132 0.17019117 0.15042841
0001e0 2a 06 a2 be 1b 77 0e 3e 05 8d 6c 3d 58 d5 08 bd
       -0.31645328 0.13912623 0.057751674 -0.033406585
0001f0 48 8a 80 3d ab c2 11 3f df 7f 44 3e b8 a1 12 bd
       0.06276375 0.56937665 0.19189404 -0.03579876
000200 40 df f6 bb 68 4e b6 3d 14 12 67 be a4 bc 90 3d
       -0.0075339377 0.089016736 -0.2256549 0.0706723
000210 4c e7 fd 3d 28 40 71 3e 14 96 eb bd 50 5e 1e bd
       0.12397632 0.2355963 -0.115032345 -0.038664162
000220 68 51 22 3e 68 0c 88 bd 50 b6 89 3d 42 01 24 3e
       0.15851367 -0.06642991 0.067242265 0.16016105
000230 e0 c1 44 be 8a 63 17 3e 74 a5 81 3d 18 01 75 3e
       -0.19214582 0.14784065 0.06330386 0.23926198
000240 58 16 63 be a8 5b 27 3d 0e ca 63 be ac 5d 57 be
       -0.22176492 0.040858895 -0.22245046 -0.21031827
000250 f3 ed bb bd 80 02 25 3d dc 2a 3b 3e 70 b4 ec 3d
       -0.091762446 0.040285587 0.18278068 0.11557853
000260 7c f5 45 be fa ac 57 be 9e 10 65 be 84 ee ff 3d
       -0.19331926 -0.21062079 -0.2236962 0.12496665
000270 68 1a 41 be 68 bd 14 3f 5b 60 32 be e0 bf c2 3c
       -0.1885773 0.5810151 -0.17419569 0.023773134
000280 ea 80 03 be 6b 73 b4 3e be 38 6b 3c 6d 7e a9 3d
       -0.12842146 0.35244307 0.01435679 0.08276067
000290 b4 f2 99 bd f8 74 7e be 45 af 06 be 06 3e 09 3e
       -0.07516995 -0.24849308 -0.13152798 0.13402566
0002a0 97 85 69 3e 72 ef 65 be ab ac 79 3d ba 5f 74 3e
       0.22804867 -0.22454622 0.060955685 0.23864642
0002b0 84 f0 23 be 6a 89 d7 bd 5e dd a6 3e e0 f8 72 3d
       -0.16009718 -0.105242565 0.32590765 0.059319377
0002c0 74 e7 00 3e a8 f7 3c 3d b2 f3 28 bd a4 7c 21 3e
       0.12588292 0.04613462 -0.04124803 0.15770203
0002d0 da 2a 2f 3e ce f3 60 3e f6 6c 9e be e0 cc c5 3d
       0.1710619 0.21968004 -0.30942506 0.096582174
0002e0 5b 96 67 3e da 56 e5 bd 49 45 0b 3c 78 89 18 bd
       0.2261595 -0.11198206 0.008500406 -0.037240475
0002f0 d4 21 4d 3e d7 c4 50 3e 5f 18 ce 3e 22 a7 4b be
       0.20032436 0.20387588 0.4025297 -0.19887975
000300 42 e0 6d be ca c6 37 be 32 52 98 3d d4 21 cf bd
       -0.23230079 -0.17946926 0.074375525 -0.10113874
000310 4d c7 8c 3e 5a 8b 0e be 68 5b 54 bd 4c 96 f1 3d
       0.27495804 -0.13920346 -0.051844984 0.11796245
000320 88 be b7 bc 18 ae db bd 24 ad 72 be f0 fe ce bd
       -0.02242972 -0.10726565 -0.2369886 -0.10107219
000330 4e f2 20 3e 70 92 f6 bc 70 a8 5a bd 64 88 0f 3e
       0.15717432 -0.030099124 -0.05338329 0.14016873
000340 de 58 31 be 05 92 1c bb 97 02 0e 3e 5d 90 43 be
       -0.17319056 -0.0023890745 0.13868175 -0.19098039
000350 5a 34 6b be d8 56 15 3e 44 fe a2 3d e8 a0 91 bd
       -0.2296919 0.1458391 0.079586536 -0.071107686
000360 da c5 7d be 69 bb f4 3e b1 98 89 3c e6 f8 08 be
       -0.24782506 0.47799233 0.016796442 -0.13376197
000370 0c 42 c7 3d 58 31 a4 3e 8a cb ee 3d 88 9b 3c 3d
       0.09729394 0.32068896 0.11659916 0.046046764
000380 f4 d2 81 bd 52 98 81 3e 96 01 5b be e9 d2 62 3e
       -0.06339064 0.25311524 -0.21387324 0.22150768
000390 0e d8 a3 bc 80 b0 04 bc bc 2d 0f bd 98 6e 53 3d
       -0.020000484 -0.0080987215 -0.034955725 0.051619142
0003a0 3a 8d 57 be 79 3e 6a 3e e4 b2 4e 3d a0 75 0d bd
       -0.21049967 0.22875394 0.050463572 -0.034536004
0003b0 58 31 f8 3d cc 53 e1 bd ab 68 38 bd d0 88 c9 bc
       0.121187866 -0.11002311 -0.045021694 -0.02460137
0003c0 b3 e1 2a 3d 70 fc 79 be ee a0 12 be 50 49 7a be
       0.04171915 -0.24412704 -0.14319202 -0.24442029
0003d0 9a fd 04 be 38 13 0f bd 63 de ac bd b4 4d 14 be
       -0.12987366 -0.034930438 -0.084408544 -0.14482766
0003e0 c2 79 d1 3e 4b 96 81 3e e6 e8 95 bb b2 13 6d 3e
       0.40913206 0.25309977 -0.004574883 0.23152044
0003f0 32 48 33 3e 32 e4 b9 3c 26 ca 05 3f 00 cb b5 3b
       0.17508009 0.02269182 0.5226158 0.005547881

fc1.bias f4 [16]
000000 fc 64 6a be 9d 2d d7 3d dd b9 6b 3d cd 43 79 3e
       -0.22890085 0.10506747 0.0575503 0.2434227
000010 de bf 9b 3e 3a 7f 04 be 3d 2b 8a bd 87 3f b8 3e
       0.3041982 -0.12939158 -0.06746528 0.35985968
000020 a4 a6 47 be 3b 5a 31 3e 98 c4 bf 3e e6 1e 96 3e
       -0.19497162 0.17319576 0.37454677 0.2932045
000030 95 cb 2c 3c 75 f6 7c 3e f1 e9 32 3d 26 e2 e7 3d
       0.010546585 0.24703391 0.043680135 0.11322431

out.weight f4 [4, 16]
000000 54 e2 4a be 88 4f b1 3d 04 37 e1 3e d6 00 8a bb
       -0.198129 0.086577475 0.43987286 -0.0042115254
000010 40 6b 3a 3e c9 eb 95 3d 85 63 cc bd 8b 53 8e bd
       0.18204975 0.07320363 -0.09979919 -0.06949528
000020 98 1b ce 3d 80 b7 ce be 0f 3a 2a 3e 86 42 4b 3e
       0.10063857 -0.40374374 0.1662371 0.19849595
000030 0e a8 36 3e 3c 8f e9 bd 6d 38 73 3e 95 eb d6 3e
       0.17837545 -0.11404273 0.23751993 0.4197661
000040 18 69 11 3d 5e 1b bc bd ca a1 32 3e da 2d 96 3e
       0.035500616 -0.091849074 0.1744453 0.29331857
000050 66 1d d9 3e a9 e8 59 be 7e 1a 0a 3e c0 bb ea 3e
       0.42405242 -0.21280159 0.13486668 0.45846367
000060 78 c1 24 bd de 71 99 bd 51 02 e7 bc 37 2b e6 3c
       -0.04022357 -0.074924216 -0.028199347 0.028096778
000070 58 f4 aa 3d b2 7b 02 3f c8 bf c5 be dc 3b 68 3d
       0.08347386 0.50969994 -0.3862288 0.05669771
000080 b0 9a d0 3c be f4 00 bd 5b ec 9b be 89 44 0c bf
       0.025464386 -0.031483404 -0.30453762 -0.54792076
000090 75 01 04 bd cf 33 f0 3d 25 e0 d6 be 0b 88 95 3e
       -0.032227952 0.11728632 -0.41967884 0.29205355
0000a0 84 d0 f2 bd 69 ed d3 3c 80 f9 6f 3e 05 ce 95 3e
       -0.118561774 0.025870042 0.2343502 0.29258743
0000b0 80 96 7e be 26 06 48 3e d5 1f a5 3d f9 19 fa 3e
       -0.24862099 0.19533595 0.08062712 0.4884794
0000c0 a8 03 b4 3d f5 df da 3e e7 79 3f be 56 91 56 3e
       0.0878976 0.4274899 -0.18698846 0.20953879
0000d0 9f 38 4d 3e e1 56 06 3e 4f 69 88 3d 0a 8c a7 3e
       0.2004113 0.13119079 0.06660711 0.3272403
0000e0 1c 55 0b 3e be dd a4 3e 59 1b b8 3e a7 c2 c2 3e
       0.13606685 0.32200426 0.35958365 0.38039133
0000f0 eb 72 8d 3b 14 f0 9c bd f5 00 51 be 3e 32 88 3d
       0.004316678 -0.07662979 -0.20410521 0.06650208

out.bias f4 [4]
000000 78 b8 72 3e 35 16 69 3d ce b7 8e 3e 0f 0b 03 be
       0.23703182 0.056905944 0.27874607 -0.12797187
